FLUTTER/.dart_tool/chrome-device/Default/optimization_guide_prediction_model_downloads/80d697c3-d583-464c-9a7e-f55eb4d8cd98/model.tflite (tflite, 498468 bytes, 160 tensors)

context_transformer_0/bottleneck_input/norm/add;StatefulPartitionedCall/context_transformer_0/bottleneck_input/norm/add;context_transformer_0/bottleneck_input/dense/einsum/Einsum;StatefulPartitionedCall/context_transformer_0/bottleneck_input/dense/einsum/Einsum;context_transformer_0/bottleneck_input/norm/mul;StatefulPartitionedCall/context_transformer_0/bottleneck_input/norm/mul;context_transformer_0/bottleneck_input/dense/add;StatefulPartitionedCall/context_transformer_0/bottleneck_input/dense/add;12614;12616;12618 f4 [32]
-0.09179193 0.0058296053 0.3294555 -0.1585297 0.062317036 -0.004395564 -0.02351911 0.022879153
0.0906554 0.036581587 0.03061751 -0.03562571 0.07284844 0.031122115 0.055647247 -0.03484986
0.085725605 -0.062003948 -0.07846074 -0.08780651 -0.048635066 0.2194214 -0.03162252 -0.0025059239
0.0066031367 -0.20121348 0.04194185 0.08932914 -0.015310552 0.06714206 0.057068583 0.16808298
00000000: 68fd bbbd 4606 bf3b 64ae a83e 9c55 22be
00000010: 2640 7f3d aa08 90bb 26ab c0bc 106d bb3c
00000020: 8aa9 b93d 93d6 153d 93d1 fa3c 44ec 11bd
00000030: 9031 953d cef3 fe3c 5eee 633d babe 0ebd
00000040: e890 af3d daf7 7dbd 06b0 a0bd e6d3 b3bd
00000050: 9035 47bd 01b0 603e 9e86 01bd 6d3a 24bb
00000060: 205f d83b e80a 4ebe 38cb 2b3d 32f2 b63d
00000070: 1cd9 7abc c781 893d bfc0 693d f21d 2c3e

context_transformer_1/bottleneck_input/norm/add;StatefulPartitionedCall/context_transformer_1/bottleneck_input/norm/add;context_transformer_0/bottleneck_input/dense/einsum/Einsum;StatefulPartitionedCall/context_transformer_0/bottleneck_input/dense/einsum/Einsum;context_transformer_1/bottleneck_input/norm/mul;StatefulPartitionedCall/context_transformer_1/bottleneck_input/norm/mul;context_transformer_1/bottleneck_input/dense/add;StatefulPartitionedCall/context_transformer_1/bottleneck_input/dense/add;context_transformer_1/bottleneck_input/dense/einsum/Einsum;StatefulPartitionedCall/context_transformer_1/bottleneck_input/dense/einsum/Einsum;12706;12708;12710 f4 [32]
-0.04802368 -0.05686695 -0.054159403 0.25955343 -0.093629345 0.055548068 -0.27671844 0.045762137
0.061183676 -0.14383245 0.055578675 0.02980176 -0.005942815 -0.020475842 -0.14603299 0.038683113
0.1445767 0.007116302 0.1260148 0.08152674 0.0881656 -0.16425571 0.2081317 -0.041478477
-0.21842137 -0.2073197 -0.042159695 -0.12345803 0.18715656 0.005487168 -0.08064939 -0.03347905
00000000: 7ab4 44bd 52ed 68bd 40d6 5dbd 30e4 843e
00000010: bec0 bfbd 5f86 633d 0aae 8dbe 1471 3b3d
00000020: bc9b 7a3d d048 13be 77a6 633d d222 f43c
00000030: f2bb c2bb f4bc a7bc ac89 15be 2f72 1e3d
00000040: ea0b 143e de2f e93b 060a 013e 7ef7 a63d
00000050: 2b90 b43d a632 28be 7a20 553e 56e5 29bd
00000060: daa9 5fbe 9e4b 54be a5af 2cbd 90d7 fcbd
00000070: f8a5 3f3e b4cd b33b 822b a5bd 5421 09bd

mention_transformer_0/bottleneck_input/norm/add;StatefulPartitionedCall/mention_transformer_0/bottleneck_input/norm/add;sequential_1/dense_3/Tensordot/shape;StatefulPartitionedCall/sequential_1/dense_3/Tensordot/shape;mention_transformer_0/bottleneck_input/norm/mul;StatefulPartitionedCall/mention_transformer_0/bottleneck_input/norm/mul;mention_transformer_0/bottleneck_input/dense/add;StatefulPartitionedCall/mention_transformer_0/bottleneck_input/dense/add;mention_transformer_0/bottleneck_input/dense/einsum/Einsum;StatefulPartitionedCall/mention_transformer_0/bottleneck_input/dense/einsum/Einsum;12810;12812;12814 f4 [32]
0.056466457 -0.10947852 0.0903524 -0.18948375 -0.0227567 0.24271086 -0.1991794 0.19603449
0.09167627 0.079410836 0.0375317 -0.02925623 0.019869318 0.12724775 -0.014114188 -0.03936985
0.10706733 0.12478937 0.13593766 0.115071476 0.18075663 -0.014590307 0.03612078 0.19937906
0.060258187 0.19368476 0.15369385 0.3248499 -0.058829103 0.18270442 0.052241035 0.030968303
00000000: 5f49 673d 4636 e0bd ae0a b93d 0708 42be
00000010: 426c babc 3289 783e aff5 4bbe 44bd 483e
00000020: c5c0 bb3d 26a2 a23d d7ba 193d c3aa efbc
00000030: fbc4 a23c 3c4d 023e 323f 67bc 4842 21bd
00000040: 1e46 db3d 9291 ff3d 3e33 0b3e 98aa eb3d
00000050: 4418 393e 2f0c 6fbc 62f3 133d 062a 4c3e
00000060: 4ad1 763d 4c55 463e ec61 1d3e ba52 a63e
00000070: c9f6 70bd de16 3b3e b2fa 553d 3db1 fd3c

mention_transformer_1/bottleneck_input/norm/add;StatefulPartitionedCall/mention_transformer_1/bottleneck_input/norm/add;sequential_1/dense_3/Tensordot/shape;StatefulPartitionedCall/sequential_1/dense_3/Tensordot/shape;mention_transformer_1/bottleneck_input/norm/mul;StatefulPartitionedCall/mention_transformer_1/bottleneck_input/norm/mul;mention_transformer_1/bottleneck_input/dense/add;StatefulPartitionedCall/mention_transformer_1/bottleneck_input/dense/add;mention_transformer_1/bottleneck_input/dense/einsum/Einsum;StatefulPartitionedCall/mention_transformer_1/bottleneck_input/dense/einsum/Einsum;12902;12904;12906 f4 [32]
-0.15547615 0.011176147 0.113572 0.0051669213 0.16010746 -0.080129415 -0.109361365 0.099934064
0.12009464 0.001931957 -0.0029611792 -0.0786837 -0.040155254 -0.22808968 0.06374223 -0.2846923
-0.14784732 -0.04459179 0.07871771 -0.040919766 0.10440628 0.034241293 0.07323617 0.03577216
-0.28594285 -0.10887386 -0.08599353 -0.024327472 -0.013470667 -0.15886296 -0.014453905 -0.14754634
00000000: 2435 1fbe 281c 373c 7098 e83d 474f a93b
00000010: 36f3 233e e41a a4bd daf8 dfbd 3baa cc3d
00000020: 2ef4 f53d b839 fd3a 5810 42bb eb24 a1bd
00000030: d679 24bd 5790 69be 498b 823d 30c3 91be
00000040: 4a65 17be e1a5 36bd c036 a13d 7c9b 27bd
00000050: f6d2 d53d 9940 0c3d d8fc 953d d485 123d
00000060: 1a67 92be 42f9 debd 601d b0bd 684a c7bc
00000070: 13b4 5cbc f9ac 22be 12d0 6cbc 6316 17be

context_transformer_0/attention/value/add;StatefulPartitionedCall/context_transformer_0/attention/value/add;context_transformer_0/attention/value/einsum/Einsum;StatefulPartitionedCall/context_transformer_0/attention/value/einsum/Einsum;12638 f4 [32]
-0.09993877 0.07723197 -0.02675594 -0.05429415 0.010057895 -0.06077998 -0.020891575 0.022822835
0.05893101 0.0028419232 0.047708765 -0.053728703 0.030091738 0.12018306 -0.041891195 -0.038193155
0.0720068 -0.04238406 -0.02823856 0.0690621 0.038248036 0.07976305 0.058049534 0.0537967
-0.047513485 -0.0065034265 -0.043976314 0.08778827 -0.008151318 0.05456338 0.072323106 -0.09946072
00000000: b3ac ccbd cc2b 9e3d 462f dbbc 8b63 5ebd
00000010: dfc9 243c 6ef4 78bd cf24 abbc f4f6 ba3c
00000020: a561 713d 8f3f 3a3b 446a 433d a112 5cbd
00000030: f382 f63c 8922 f63d 1a96 2bbd 6d70 1cbd
00000040: 4d78 933d e89a 2dbd 8d54 e7bc 6e70 8d3d
00000050: f9a9 1c3d cf5a a33d 59c5 6d3d ee59 5c3d
00000060: 809d 42bd b21a d5bb 8220 34bd 56ca b33d
00000070: 1b8d 05bc da7d 5f3d 231e 943d 10b2 cbbd

context_transformer_0/bottleneck_input/norm/mul;StatefulPartitionedCall/context_transformer_0/bottleneck_input/norm/mul;context_transformer_0/bottleneck_input/dense/einsum/Einsum;StatefulPartitionedCall/context_transformer_0/bottleneck_input/dense/einsum/Einsum;context_transformer_0/bottleneck_input/dense/add;StatefulPartitionedCall/context_transformer_0/bottleneck_input/dense/add;12614;12616 f4 [32, 32]
0.2267523 -0.053981233 0.1745781 0.17772083 0.16941157 -0.015012247 -0.3538127 0.01856839
-0.098840885 -0.069197066 -0.10860423 0.06294995 0.113056056 0.14590111 0.15464899 -0.20334177
0.23521301 0.21917419 0.109415285 -0.15383825 -0.20488895 0.19237813 0.10486341 0.18266222
-0.18792261 0.26738206 0.107155025 0.18078373 -0.079002656 0.1273806 -0.033131827 0.20444022
-0.26820534 0.3596261 0.19208948 0.026206775 -0.052358042 -0.02674675 0.034367763 0.055646293
0.045608632 0.14910541 0.065074146 0.031205688 0.32295468 -0.07768413 -0.11822971 -0.15467691
-0.0032833128 -0.11244939 0.08737934 0.031193295 -0.02182268 0.037752613 -0.037519403 0.15111634
0.018223837 0.12441559 -0.11310067 -0.06849292 -0.2139937 -0.20160854 0.10994082 0.16792831
0.18296121 0.08604472 0.04924017 -0.29311723 -0.28303006 0.17925516 -0.060836446 -0.06537861
0.20785823 -0.025855722 0.17781161 -0.15192796 -0.2562 -0.047824513 0.2547262 -0.14503913
0.12164793 -0.18166652 0.022140466 -0.32894278 -0.24034418 0.329735 0.6016098 0.12507217
0.16883166 -0.05555725 -0.23024938 0.1502557 -0.51965046 -0.09748115 -0.016654018 -0.27157742
0.22919676 -0.0009997673 0.21007672 -0.23932768 0.29367605 -0.28980395 -0.10012755 0.009765909
-0.26262894 0.21129611 0.3656363 -0.2655301 0.36913282 -0.2009079 0.21883236 0.058229428
0.066254556 0.06634207 0.18228318 -0.25103128 0.25365934 -0.015282807 -0.18228786 -0.03592928
0.11514918 0.09509123 -0.123021156 -0.049329493 0.0076465104 0.1760182 0.21627885 0.44993392
0.26196456 -0.068923466 -0.07096729 0.6465497 0.21098736 0.1471425 -0.1208533 -0.19300273
0.08301215 -0.15723424 0.026461544 0.28491375 0.2806492 -0.09050265 0.23819582 0.3407879
0.17694002 -0.055023458 -0.23440443 0.15716633 0.026828723 -0.057633486 -0.16904406 -0.015105935
0.079099596 0.013325949 -0.12423061 -0.025595937 0.05371113 -0.10494014 -0.063978165 -0.22169387
0.50186586 -0.5639975 0.17844564 0.0787854 0.08334381 0.06329785 0.5852461 -0.51700985
-0.050120633 -0.3576661 -0.18849461 0.115375355 -0.5592715 0.21392539 -0.04425849 0.29297346
0.24064662 0.16118051 -0.75597554 0.75546145 -0.020746542 -0.28434646 0.010026738 -0.1887935
-0.36647186 -0.43147045 -0.10080368 0.25197762 0.47318286 -0.13889672 -0.4912892 -0.25957912
0.0007169587 0.06783252 0.37977043 0.36489695 -0.07466471 -0.070524886 0.4896959 0.066677466
-0.17197084 -0.020192152 0.049310673 0.0081936745 0.26750696 -0.25430357 0.025189696 -0.018991033
0.034957748 0.020226229 0.12835145 0.24155028 -0.30459028 0.09199437 0.029842071 0.092767484
0.49759364 -0.026870785 0.23159096 -0.21663328 0.29340124 0.084919184 -0.3706053 0.08383124
-0.32420427 -0.68142635 -0.37134683 0.061745837 0.12653372 -0.0504213 -0.10739852 0.039921895
0.2311295 -0.31224698 -0.51865137 -0.5099943 -0.23777236 -0.29966852 -0.8624263 0.35466364
-0.1037739 0.31056544 0.27381533 0.15528007 0.25774238 0.16453356 0.0059815515 -0.10346023
0.047725268 0.045019913 -0.24420616 -0.22900105 -0.23050812 -0.1881499 0.21253978 0.2460453
00000000: c131 683e 6d1b 5dbd 9ac4 323e 73fc 353e
00000010: 3a7a 2d3e edf5 75bc f026 b5be bc1c 983c
00000020: 176d cabd 31b7 8dbd e56b debd e7eb 803d
00000030: ef89 e73d 1a67 153e 4e5c 1e3e d338 50be
00000040: aedb 703e 336f 603e 1f15 e03d c687 1dbe
00000050: 69ce 51be c6fe 443e a1c2 d63d ce0b 3b3e
00000060: c96e 40be 4de6 883e 1874 db3d 5f1f 393e
00000070: 25cc a1bd 0f70 023e 3db5 07bd c758 513e
00000080: 3652 89be ea20 b83e 1bb3 443e 97af d63c
00000090: 6375 56bd 001c dbbc 36c5 0c3d 5eed 633d
000000a0: 1ed0 3a3d 17af 183e 9845 853d 12a3 ff3c
000000b0: 515a a53e db18 9fbd 6b22 f2bd a063 1ebe
000000c0: d92c 57bb de4b e6bd f0f3 b23d 1589 ff3c
000000d0: 7ac5 b2bc 7ca2 1a3d f2ad 19bd 3ebe 1a3e
000000e0: 284a 953c 9acd fe3d 53a1 e7bd 0446 8cbd
000000f0: 2a21 5bbe 7872 4ebe a728 e13d 66f5 2b3e
00000100: 2f5a 3b3e 3738 b03d 0fb0 493d 7613 96be
00000110: 51e9 90be aa8e 373e a32f 79bd 38e5 85bd
00000120: cad8 543e 61cf d3bc 3f14 363e 0193 1bbe
00000130: a52c 83be a3e3 43bd 796b 823e 2385 14be
00000140: 8d22 f93d ca06 3abe ec5f b53c 306b a8be
00000150: c91c 76be 07d3 a83e 1a03 1a3f eb12 003e
00000160: 35e2 2c3e 0090 63bd 7ec6 6bbe a1dc 193e
00000170: d007 05bf 32a4 c7bd 026e 88bc 320c 8bbe
00000180: 8eb2 6a3e a00a 83ba 5a1e 573e 5112 75be
00000190: b55c 963e 2f61 94be ac0f cdbd 3101 203c
000001a0: 4d77 86be 025e 583e ae34 bb3e 90f3 87be
000001b0: fafe bc3e cdba 4dbe 9715 603e fb81 6e3d
000001c0: 78b0 873d 5ade 873d 71a8 3a3e 2c87 80be
000001d0: a3df 813e bd64 7abc aba9 3abe 952a 13bd
000001e0: 55d3 eb3d 31bf c23d 84f2 fbbd b90d 4abd
000001f0: 948f fa3b 1d3e 343e 3478 5d3e bd5d e63e
00000200: 3820 863e bf27 8dbd 4c57 91bd 4884 253f
00000210: 120d 583e 86ac 163e ef81 f7bd 82a2 45be
00000220: 4602 aa3d 0302 21be e1c5 d83c 37e0 913e
00000230: 40b1 8f3e 7459 b9bd 9be9 733e c07b ae3e
00000240: c42f 353e 4760 61bd b707 70be 36f0 203e
00000250: e9c7 db3c 1711 6cbd e319 2dbe e27e 77bc
00000260: f8fe a13d 1555 5a3c 9e6c febd 92ae d1bc
00000270: 3400 5c3d dbea d6bd fc06 83bd b803 63be
00000280: 487a 003f 2462 10bf 74ba 363e 3d5a a13d
00000290: 29b0 aa3d 4ea2 813d b0d2 153f c25a 04bf
000002a0: 4b4b 4dbd 0320 b7be bb04 41be ea49 ec3d
000002b0: 6b2c 0fbf 420f 5b3e 6448 35bd 9e00 963e
000002c0: 116c 763e 810c 253e 9d87 41bf ec65 413f
000002d0: a7f4 a9bc dc95 91be 3047 243c 1553 41be
000002e0: 33a2 bbbe b2e9 dcbe 2972 cebd 3603 813e
000002f0: 0645 f23e f13a 0ebe 428a fbbe 8ee7 84be
00000300: 49f2 3b3a c7eb 8a3d 4571 c23e c6d3 ba3e
00000310: d0e9 98bd 5a6f 90bd 6cb9 fa3e 328e 883d
00000320: 2019 30be 036a a5bc fdf9 493d c33e 063c
00000330: acf6 883e 1434 82be 9f5a ce3c 1593 9bbc
00000340: db2f 0f3d 7ab1 a53c 906e 033e f558 773e
00000350: 42f3 9bbe 8b67 bc3d 5c77 f43c e1fc bd3d
00000360: 98c4 fe3e 1f20 dcbc 2e26 6d3e 1dd5 5dbe
00000370: b038 963e 1cea ad3d fabf bdbe b7af ab3d
00000380: 1afe a5be f571 2ebf 2c21 bebe 34e9 7c3d
00000390: 0e92 013e 9186 4ebd c1f3 dbbd 2485 233d
000003a0: 36ad 6c3e d6de 9fbe 56c6 04bf fd8e 02bf
000003b0: 997a 73be 276e 99be f8c7 5cbf 7996 b53e
000003c0: 6987 d4bd 6f02 9f3e 8631 8c3e bd01 1f3e
000003d0: cff6 833e 7c7b 283e e400 c43b f5e2 d3bd
000003e0: 927b 433d cd66 383d 2e11 7abe 407f 6abe
000003f0: 520a 6cbe 5eaa 40be 07a4 593e 4df3 7b3e

context_transformer_1/attention/value/add;StatefulPartitionedCall/context_transformer_1/attention/value/add;context_transformer_0/attention/value/einsum/Einsum;StatefulPartitionedCall/context_transformer_0/attention/value/einsum/Einsum;context_transformer_1/attention/value/einsum/Einsum;StatefulPartitionedCall/context_transformer_1/attention/value/einsum/Einsum;12730 f4 [32]
0.104382515 0.068011805 0.13256896 0.013150377 0.08246096 -0.146475 0.12772413 -0.18021564
0.00301843 0.05546347 -0.17361091 0.20176959 0.032444164 -0.1649553 -0.1082185 0.06416793
-0.07362782 -0.05309764 -0.009482341 -0.09939701 0.04389717 0.1962434 0.11731617 0.048593137
0.07979154 -0.079230405 0.0074156113 -0.17143448 0.05906176 0.030368067 0.22336842 -0.061491244
00000000: 80c6 d53d c649 8b3d 28c0 073e ae74 573c
00000010: 4be1 a83d 8bfd 15be 1dca 023e 738a 38be
00000020: dad0 453b aa2d 633d 0fc7 31be b09c 4e3e
00000030: 2ce4 043d 0bea 28be a9a1 ddbd 7a6a 833d
00000040: 2fca 96bd e97c 59bd d25b 1bbc a990 cbbd
00000050: 85cd 333d 08f4 483e 7643 f03d 9909 473d
00000060: bf69 a33d 8d43 a2bd a8fe f23b 858c 2fbe
00000070: beea 713d 74c6 f83c b1ba 643e 3ede 7bbd

context_transformer_1/bottleneck_input/norm/mul;StatefulPartitionedCall/context_transformer_1/bottleneck_input/norm/mul;context_transformer_0/bottleneck_input/dense/einsum/Einsum;StatefulPartitionedCall/context_transformer_0/bottleneck_input/dense/einsum/Einsum;context_transformer_1/bottleneck_input/dense/add;StatefulPartitionedCall/context_transformer_1/bottleneck_input/dense/add;context_transformer_1/bottleneck_input/dense/einsum/Einsum;StatefulPartitionedCall/context_transformer_1/bottleneck_input/dense/einsum/Einsum;12706;12708 f4 [32, 32]
-0.012510022 0.47564912 0.086131595 -0.3011104 -0.22860499 -0.23947686 -0.34109303 0.37317994
0.020467924 0.34594142 0.1389123 0.13559397 -0.4258986 0.28681004 0.2038547 0.078767434
0.028966703 -0.13939889 -0.35763508 -0.47326556 0.25301832 -0.09708743 0.03078731 0.05519669
-0.24061441 0.2628018 0.26653194 0.017515758 -0.21929419 -0.33215296 0.34054148 -0.14399698
-0.43428457 -0.011104593 0.14222781 -0.2405165 0.23459768 -0.24409465 0.32864323 -0.12898509
0.1989764 0.11191201 -0.107036486 -0.17033702 -0.04857105 0.376945 -0.33172312 -0.3472979
0.46224532 -0.23687796 0.11400755 -0.13817623 0.23787214 0.11145175 0.6589247 0.4610137
-0.020782894 0.24756546 0.04076488 -0.49247068 0.57771283 0.39125407 -0.27804837 -0.28455788
-0.06833479 0.26612625 0.18285464 0.16569364 0.04992421 0.099037685 0.21871567 -0.44762018
0.34921464 -0.34899038 -0.23810962 0.060242523 0.3863463 -0.047111478 -0.21718282 0.22450066
0.27432027 0.06666522 -0.6527546 0.25713512 0.08534416 -0.06232892 0.16024645 -0.2044239
-0.084133126 -0.0468185 -0.049387988 0.00064162456 0.13192421 -0.23771298 -0.0436572 0.09139404
0.13232109 -0.13213022 -0.15745242 0.07900161 -0.43326378 0.12830894 -0.09408363 0.050374772
0.34339455 -0.17679669 -0.19889237 -0.13632104 -0.07752219 0.043372113 0.25948095 -0.21201
0.5066884 -0.045543265 -0.18656962 -0.10345245 -0.17888223 0.34275725 -0.5215752 0.08522687
-0.15014951 0.23697343 0.22026975 0.21480381 0.17085312 -0.08218399 -0.029865025 0.0390581
0.09086718 0.53478557 -0.027983237 -0.048367985 -0.10429114 0.15156686 -0.42687407 -0.029032147
-0.57557046 0.036413588 0.23738296 0.169247 -0.33145988 -0.28334206 -0.12638438 -0.5797908
0.065620795 0.51748145 0.12554096 -0.30566165 -0.19265436 0.073724166 -0.008924527 -0.10643034
-0.16800651 0.025133679 0.13289523 0.22281675 0.4442964 0.32206947 -0.4782159 0.020124562
-0.015751816 0.07009409 0.0039697257 0.38758373 0.18705758 0.035076715 -0.079976656 0.10077453
-0.3006666 0.03047664 0.116065994 -0.2909907 -0.09691845 -0.06775033 0.06825155 0.21194631
0.15671097 -0.17674239 0.077715114 0.23449905 -0.2612326 0.04603437 0.15945321 -0.100498304
0.1562555 -0.26460722 0.40109652 -0.3620024 0.14649598 0.034435093 0.12600972 0.06476598
-0.0035593617 0.056347538 -0.011878184 -0.29481024 -0.551402 0.2202812 0.27230132 0.059637405
0.40394133 0.04909901 0.18137333 -0.47129357 0.3917206 0.20930587 0.07273798 0.24991374
-0.19827928 0.16149636 0.028731763 0.18278824 0.2385733 -0.30632535 0.058703154 0.4808938
0.21445897 -0.32342213 -0.40318015 -0.16704662 -0.42342556 0.13137181 0.5682518 0.05939276
-0.28357026 0.023305824 -0.22402966 -0.24074979 -0.38716674 -0.36769697 0.09321515 0.10471572
0.008464979 0.39350492 0.07432234 -0.15061033 0.027536465 -0.02246871 -0.34117258 0.158024
-0.032742728 0.049671184 -0.52938926 -0.2724696 0.44381636 0.108244725 0.5821406 -0.16425465
-0.5910466 -0.49331445 0.068542704 0.1630896 -0.20928037 -0.3521784 0.11964747 0.26097727
00000000: d6f6 4cbc 4888 f33e c365 b03d 242b 9abe
00000010: 6d17 6abe 6c39 75be bfa3 aebe 7111 bf3e
00000020: 59ac a73c 3c1f b13e 073f 0e3e 25d9 0a3e
00000030: 620f dabe c4d8 923e 49bf 503e d250 a13d
00000040: 944b ed3c 95be 0ebe f21b b7be dd4f f2be
00000050: 9e8b 813e c6d5 c6bd ab35 fc3c ed15 623d
00000060: a063 76be f58d 863e e076 883e 357d 8f3c
00000070: a88e 60be f40f aabe 745b ae3e f273 13be
00000080: 8c5a debe 0af0 35bc 2ba4 113e f549 76be
00000090: 603a 703e f3f3 79be ed43 a83e ab14 04be
000000a0: 78c0 4b3e 2032 e53d f235 dbbd d46c 2ebe
000000b0: 70f2 46bd effe c03e 9dd7 a9be 08d1 b1be
000000c0: 6bab ec3e 2390 72be ca7c e93d 127e 0dbe
000000d0: c194 733e d140 e43d 4aaf 283f fd09 ec3e
000000e0: e340 aabc cd81 7d3e 13f9 263d 1e25 fcbe
000000f0: fde4 133f 7452 c83e 5b5c 8ebe 92b1 91be
00000100: 1cf3 8bbd b341 883e 3f3e 3b3e 98ab 293e
00000110: 547d 4c3d 45d4 ca3d 00f7 5f3e 792e e5be
00000120: 43cc b23e deae b2be 02d3 73be ddc0 763d
00000130: 2fcf c53e f7f7 40bd 2c65 5ebe 80e3 653e
00000140: b573 8c3e c687 883d ed1a 27bf 37a7 833e
00000150: ebc8 ae3d 9c4c 7fbd a517 243e 8054 51be
00000160: fd4d acbd c1c4 3fbd 0f4b 4abd b232 283a
00000170: 2417 073e 086b 73be e4d1 32bd cc2c bb3d
00000180: 2e7f 073e 254d 07be 353b 21be 99cb a13d
00000190: c0d4 ddbe 6b63 033e ebae c0bd c755 4e3d
000001a0: 69d1 af3e 310a 35be 71aa 4bbe be97 0bbe
000001b0: f4c3 9ebd f5a6 313d b0da 843e 2619 59be
000001c0: 55b6 013f 938b 3abd 1b0c 3fbe e1de d3bd
000001d0: e72c 37be e17d af3e f485 05bf 6d8b ae3d
000001e0: cbc0 19be 2aa9 723e 658e 613e 88f5 5b3e
000001f0: 1ff4 2e3e 1450 a8bd 7fa7 f4bc 63fb 1f3d
00000200: 9218 ba3d b5e7 083f 1a3d e5bc 821d 46bd
00000210: 9896 d5bd 5834 1b3e 3d8f dabe d3d4 edbc
00000220: 9658 13bf 6a26 153d 8514 733e 164f 2d3e
00000230: 1cb5 a9be 3612 91be e86a 01be 2b6d 14bf
00000240: 3264 863d aa79 043f cf8d 003e af7f 9cbe
00000250: 2f47 45be b2fc 963d 2e38 12bc 26f8 d9bd
00000260: e609 2cbe 25e5 cd3c b015 083e 132a 643e
00000270: d17a e33e 4ae6 a43e b7d8 f4be 44dc a43c
00000280: f409 81bc 7e8d 8f3d 7914 823b 6071 c63e
00000290: 068c 3f3e 9aac 0f3d cdca a3bd e062 ce3d
000002a0: f9f0 99be 26aa f93c 02b4 ed3d bcfc 94be
000002b0: 2e7d c6bd afc0 8abd 78c7 8b3d 7408 593e
000002c0: d778 203e f5fb 34be 1a29 9f3d 8520 703e
000002d0: 48c0 85be 898e 3c3d b447 233e 0ed2 cdbd
000002e0: 7101 203e 997a 87be 865c cd3e 6158 b9be
000002f0: 0b03 163e d00b 0d3d b108 013e 07a4 843d
00000300: 2e44 69bb adcc 663d b79c 42bc 5ef1 96be
00000310: ae28 0dbf 6591 613e 146b 8b3e 5a46 743d
00000320: 66d1 ce3e 0b1c 493d eeb9 393e 644d f1be
00000330: 9a8f c83e 4754 563e a6f7 943d 63e9 7f3e
00000340: b909 4bbe 4d5f 253e e05e eb3c d72c 3b3e
00000350: 8f4c 743e add6 9cbe b872 703d b637 f63e
00000360: 229b 5b3e 9697 a5be a16d cebe 450e 2bbe
00000370: 3ccb d8be 5586 063e f378 113f d345 733d
00000380: 1f30 91be dbeb be3c 0868 65be 1d87 76be
00000390: b83a c6be c742 bcbe 96e7 be3d 3275 d63d
000003a0: b2b0 0a3c 7a79 c93e 5036 983d 9839 1abe
000003b0: 2794 e13c 4d10 b8bc 2cae aebe 0bd1 213e
000003c0: 3d1d 06bd 0374 4b3d 0e86 07bf 2381 8bbe
000003d0: e63b e33e 69af dd3d 2b07 153f 5f32 28be
000003e0: d44e 17bf b693 fcbe 1e60 8c3d f600 273e
000003f0: 984d 56be ba50 b4be bc09 f53d d09e 853e

mention_transformer_0/attention/value/add;StatefulPartitionedCall/mention_transformer_0/attention/value/add;mention_transformer_0/attention/value/einsum/Einsum;StatefulPartitionedCall/mention_transformer_0/attention/value/einsum/Einsum;12834 f4 [32]
0.16392104 -0.17236793 -0.11164665 0.26824164 0.089714795 -0.2996909 -0.1201331 0.07127666
0.32140145 -0.2732271 0.13821355 -0.13763008 0.18972106 0.2114948 -0.075041756 0.027778035
0.0071407524 -0.04074162 -0.29304957 -0.029599208 -0.17300613 -0.20416975 0.07303776 -0.23680004
0.12767409 0.059698228 0.06835396 -0.14558965 -0.1583558 -0.20733975 -0.13935037 0.116853036
00000000: ebda 273e 3881 30be 00a7 e4bd f856 893e
00000010: 64bc b73d 1671 99be 5808 f6bd 7ff9 913d
00000020: bb8e a43e 6ce4 8bbe da87 0d3e e6ee 0cbe
00000030: 3d46 423e 1892 583e 7eaf 99bd c38e e33c
00000040: f9fc e93b afe0 26bd 980a 96be 0a7a f2bc
00000050: 8528 31be e011 51be d294 953d b67b 72be
00000060: ffbc 023e 2186 743d 29fd 8b3d 7415 15be
00000070: 0628 22be df50 54be ddb1 0ebe a550 ef3d

mention_transformer_0/bottleneck_input/norm/mul;StatefulPartitionedCall/mention_transformer_0/bottleneck_input/norm/mul;sequential_1/dense_3/Tensordot/shape;StatefulPartitionedCall/sequential_1/dense_3/Tensordot/shape;mention_transformer_0/bottleneck_input/dense/add;StatefulPartitionedCall/mention_transformer_0/bottleneck_input/dense/add;mention_transformer_0/bottleneck_input/dense/einsum/Einsum;StatefulPartitionedCall/mention_transformer_0/bottleneck_input/dense/einsum/Einsum;12810;12812 f4 [32, 32]
-0.29570585 -0.16927108 0.30441093 -0.13508135 0.14364947 0.24968125 -0.5254641 0.21448575
0.0013004424 0.2305009 -0.5865832 -0.072412916 -0.5122748 -0.0033215343 0.087049425 0.3440211
-0.12261127 -0.23665422 0.22870475 0.52172977 0.274625 -0.1046111 0.118488945 -0.18283111
-0.3565225 0.068350025 -0.06919844 0.15053907 -0.07396648 -0.17431504 -0.022277035 -0.0040770276
0.22009385 0.006461964 -0.0093492195 -0.03665171 -0.052447468 0.166604 -0.044155546 -0.026121942
0.17654805 0.118574955 -0.06664449 -0.12829143 -0.16031 0.15919732 0.09237462 -0.26931173
0.06280305 -0.24315636 -0.3783509 -0.53915864 -0.24858361 0.0028509945 0.3153042 0.276728
0.04441236 0.5760457 0.2988498 -0.03188936 -0.18665713 0.45335358 -0.069363035 0.27879018
-0.045193724 -0.04705848 0.009274245 0.09538556 0.041377682 -0.17153157 0.006416164 0.14129205
0.07421844 -0.17751843 0.1646361 0.10176707 0.06198319 -0.06021454 0.04963261 -0.22242874
-0.06511112 0.2384705 0.033936184 0.14043638 -0.04715926 0.19225763 -0.00014731819 -0.081874214
0.01672703 -0.16959697 -0.044233993 -0.05339623 0.059752006 -0.03788714 -0.2972742 -0.18487918
-0.00050536165 -0.08636732 -0.041577358 0.073532365 0.037141684 -0.057653267 -0.13946952 0.226017
-0.111068904 0.11873184 0.014103738 -0.052904572 0.11170447 0.08052194 0.056190383 0.108172014
0.20151326 0.049498763 -0.1430874 0.0033684224 0.2527412 -0.25583187 -0.055215437 -0.01492803
0.09395699 0.15888359 0.1736769 -0.06035418 -0.013753111 0.116610706 -0.3236539 -0.0054271906
0.073272854 -0.30008376 -0.06016119 -0.34435883 0.04928576 0.17380606 0.5031871 0.0707669
-0.28291315 -0.11614102 0.14786585 0.07587022 0.21572584 -0.07276791 0.26761803 0.030489208
0.35683343 0.10304843 -0.058436457 0.08662939 0.17320327 0.102403715 0.43765995 0.0031311545
0.06973498 -0.0068049245 -0.13832738 0.09152819 -0.2520924 -0.04305383 -0.31817093 0.0798489
-0.2404917 -0.14798173 -0.066902205 -0.050144516 -0.036201216 0.24308017 -0.1546752 -0.036217038
-0.0110877175 0.06351255 -0.07566986 -0.11768163 0.001585834 0.05147785 -0.33386308 -0.08859766
-0.098361894 -0.02101433 0.058746543 0.24815716 -0.030140096 -0.01851063 0.17678368 -0.2010758
-0.027137296 -0.23609512 0.129067 0.07574776 -0.18194014 0.051239416 0.27404204 0.14379984
-0.01562637 -0.010578041 -0.08320055 0.06304147 -0.008639384 -0.00074036466 0.12543677 0.014948996
-0.06953927 -0.10423764 0.08006355 0.21093377 0.0031091324 -0.07500081 0.0002855265 -0.08616911
-0.17609106 -0.035211995 -0.35416767 0.00538225 0.009016643 0.08003466 -0.10137255 -0.0366022
-0.035439063 -0.10743758 -0.277014 -0.00345227 0.1849959 -0.26196435 0.23311266 -0.19788195
-0.22283688 0.08021898 -0.007218126 0.121258885 -0.014344727 0.05551473 -0.2397661 0.022826001
-0.33791706 0.32797325 -0.14780793 0.2115589 0.2728007 0.28326213 -0.14998858 0.07840285
0.07673791 -0.118097745 0.24642934 0.5806993 -0.06516139 -0.17392963 0.048067268 0.08053579
0.10310078 -0.20816572 -0.11113027 -0.06395999 -0.064624816 0.04474811 -0.30684265 -0.18289767
00000000: c266 97be 6655 2dbe c0db 9b3e c452 0abe
00000010: d918 133e 71ac 7f3e d184 06bf 27a2 5b3e
00000020: 9b73 aa3a 6e08 6c3e 512a 16bf 394d 94bd
00000030: 7124 03bf 19ae 59bb f846 b23d 8923 b03e
00000040: 9e1b fbbd 7c55 72be 9431 6a3e 1590 053f
00000050: a69b 8c3e 583e d6bd 55aa f23d 1438 3bbe
00000060: 1e8a b6be 19fb 8b3d e9b7 8dbd ea26 1a3e
00000070: bd7b 97bd a47f 32be 547e b6bc 9698 85bb
00000080: 4860 613e e2be d33b 782d 19bc 1a20 16bd
00000090: 28d3 56bd 3d9a 2a3e 72dc 34bd affd d5bc
000000a0: 03c9 343e 6dd7 f23d e87c 88bd d45e 03be
000000b0: 4e28 24be 9f04 233e e82e bd3d 3ae3 89be
000000c0: e39e 803d fbfd 78be 36b7 c1be 4d06 0abf
000000d0: b48c 7ebe c0d7 3a3b 8d6f a13e 4baf 8d3e
000000e0: bce9 353d bb77 133f d702 993e 6b9e 02bd
000000f0: 0c23 3fbe f61d e83e 350e 8ebd 96bd 8e3e
00000100: 0e1d 39bd 65c0 40bd 01f3 173c 8159 c33d
00000110: a57b 293d f9a5 2fbe af3e d23b ddae 103e
00000120: d6ff 973d 64c7 35be 5e96 283e 416b d03d
00000130: 16e2 7d3d 86a3 76bd 904b 4b3d 5cc4 63be
00000140: fb58 85bd 9c31 743e ab00 0b3d 8ece 0f3e
00000150: 112a 41bd 2fdf 443e 6d79 1ab9 abad a7bd
00000160: 2007 893c d4aa 2dbe b42e 35bd 01b6 5abd
00000170: 85be 743d 8c2f 1bbd 5334 98be f850 3dbe
00000180: 3f7a 04ba 59e1 b0bd 054d 2abd 2398 963d
00000190: e121 183d d525 6cbd 19d1 0ebe 0071 673e
000001a0: 1878 e3bd ae29 f33d 5d13 673c 77b2 58bd
000001b0: 50c5 e43d b0e8 a43d e327 663d 4a89 dd3d
000001c0: 7e59 4e3e 37bf 4a3d 8185 12be c0c0 5c3b
000001d0: 4b67 813e 65fc 82be 9529 62bd b294 74bc
000001e0: 866c c03d 61b2 223e 5bd8 313e f235 77bd
000001f0: ba54 61bc 98d1 ee3d f7b5 a5be 93d6 b1bb
00000200: 1410 963d 94a4 99be 946b 76bd cd4f b0be
00000210: dddf 493d 37fa 313e dfd0 003f 3dee 903d
00000220: fed9 90be 58db edbd 256a 173e d961 9b3d
00000230: 3ce7 5c3e 5807 95bd 3b05 893e 81c4 f93c
00000240: dfb2 b63e 0e0b d33d 115b 6fbd c06a b13d
00000250: 335c 313e 0ab9 d13d f714 e03e 0e34 4d3b
00000260: 37d1 8e3d d8fb debb b1a5 0dbe 2273 bb3d
00000270: 4112 81be 3659 30bd 4de7 a2be d287 a33d
00000280: 7543 76be 8688 17be 0604 89bd 5664 4dbd
00000290: ba47 14bd 02ea 783e 2d63 1ebe 5158 14bd
000002a0: 42a9 35bc de12 823d cdf8 9abd 1103 f1bd
000002b0: c2db cf3a 70da 523d 1af0 aabe b172 b5bd
000002c0: f671 c9bd 3f26 acbc 37a0 703d e91c 7e3e
000002d0: 5de8 f6bc 9ba3 97bc c806 353e d1e6 4dbe
000002e0: 094f debc ebc2 71be 242a 043e a421 9b3d
000002f0: 844e 3abe 6ce0 513d 3d4f 8c3e 4440 133e
00000300: e002 80bc 854f 2dbc 0d65 aabd e31b 813d
00000310: 348c 0dbc 0815 42ba 7f72 003e a2ec 743c
00000320: 9b6a 8ebd 8b7a d5bd 5cf8 a33d 06ff 573e
00000330: 96c2 4b3b 069a 99bd b8b2 9539 6e79 b0bd
00000340: 3751 34be 743a 10bd 7755 b5be 965d b03b
00000350: 8bba 133c 36e9 a33d 699c cfbd 30ec 15bd
00000360: 8d28 11bd 3c08 dcbd c7d4 8dbe 7b3f 62bb
00000370: 916f 3d3e 3120 86be 16b5 6e3e 91a1 4abe
00000380: 5a2f 64be d949 a43d 0886 ecbb 9456 f83d
00000390: 2506 6bbc 6a63 633d 3f85 75be 98fd ba3c
000003a0: 7703 adbe 1cec a73e f65a 17be e5a2 583e
000003b0: 89ac 8b3e bc07 913e 9b96 19be ac91 a03d
000003c0: c428 9d3d 3bdd f1bd f957 7c3e b6a8 143f
000003d0: 5673 85bd 9c1a 32be 2fe2 443d f3ef a43d
000003e0: 8026 d33d 6529 55be 4498 e3bd 75fd 82bd
000003f0: 045a 84bd cb49 373d 7b1a 9dbe 8749 3bbe

mention_transformer_1/attention/value/add;StatefulPartitionedCall/mention_transformer_1/attention/value/add;mention_transformer_0/attention/value/einsum/Einsum;StatefulPartitionedCall/mention_transformer_0/attention/value/einsum/Einsum;mention_transformer_1/attention/value/einsum/Einsum;StatefulPartitionedCall/mention_transformer_1/attention/value/einsum/Einsum;12926 f4 [32]
0.03338285 0.09507567 -0.2108162 0.120825626 -0.108717844 0.108042724 -0.015249547 -0.15818006
-0.098619215 -0.035858955 0.040591534 0.22481486 0.32009187 0.091688514 0.14587036 -0.07288872
-0.03170097 -0.0035784314 0.06604476 0.066628896 0.056335203 0.08020115 -0.011627215 0.20384862
-0.3382628 0.28693616 0.15171145 0.37676826 -0.13922563 0.018589646 0.15891473 0.2580246
00000000: 75bc 083d 08b7 c23d 34e0 57be 6d73 f73d
00000010: 76a7 debd 8145 dd3d 3cd9 79bc f4f9 21be
00000020: dff8 c9bd d7e0 12bd 4f43 263d de35 663e
00000030: 15e3 a33e 30c7 bb3d 0a5f 153e ae46 95bd
00000040: e0d8 01bd 1e84 6abb 7a42 873d bb74 883d
00000050: bebf 663d 8040 a43d 1380 3ebc b1bd 503e
00000060: c830 adbe 4ce9 923e 3f5a 1b3e c5e7 c03e
00000070: 2a91 0ebe 5049 983c 8bba 223e cd1b 843e

mention_transformer_1/bottleneck_input/norm/mul;StatefulPartitionedCall/mention_transformer_1/bottleneck_input/norm/mul;sequential_1/dense_3/Tensordot/shape;StatefulPartitionedCall/sequential_1/dense_3/Tensordot/shape;mention_transformer_1/bottleneck_input/dense/add;StatefulPartitionedCall/mention_transformer_1/bottleneck_input/dense/add;mention_transformer_1/bottleneck_input/dense/einsum/Einsum;StatefulPartitionedCall/mention_transformer_1/bottleneck_input/dense/einsum/Einsum;12902;12904 f4 [32, 32]
0.04373804 0.22759832 -0.03403333 0.21741006 -0.35948932 -0.110741265 -0.30162197 0.39257178
0.30226013 0.098227896 -0.32019752 -0.17389585 -0.1166262 -0.06528504 0.13245559 0.19731565
-0.2188496 -0.024607835 -0.021251252 -0.1014728 -0.036614433 -0.19039486 -0.281082 -0.13981806
0.03478426 0.05683696 0.09351559 0.24438986 -0.3594249 -0.14706627 -0.09679928 0.4199769
0.13479942 -0.036775913 -0.12787764 0.20623118 -0.06790056 -0.20906667 0.31012487 -0.01291431
0.12920551 -0.014302356 0.027672611 0.10077756 0.09407721 -0.23151112 0.24503048 -0.21065797
0.14751339 -0.10647393 0.07535547 -0.052744932 -0.08548327 0.012171831 -0.323155 0.13867036
-0.20375839 0.1760466 -0.2402944 0.015009703 -0.08597658 -0.19731726 0.24599728 -0.12048949
0.17367838 -0.21890824 0.1670171 -0.30176225 0.03882766 -0.08671628 0.20228633 0.028139103
-0.15863346 -0.066622764 0.15578602 0.01781244 0.01107337 0.058788847 0.17333674 0.075029165
0.047005933 -0.16244256 -0.01202616 -0.13033721 -0.075027935 -0.12837876 0.32400313 0.052750185
0.1271048 0.095106736 -0.019781327 0.12252362 0.16315186 -0.09537142 -0.28879073 -0.49489284
-0.22319545 0.2850503 0.19699305 -0.121141315 0.5039741 0.26060882 -0.13076949 0.29816845
0.36606583 0.0049337456 -0.17389432 -0.29093468 -0.37408465 0.07497049 -0.05906096 0.116837874
-0.32421026 -0.029735489 -0.30223924 0.21154752 -0.33782473 0.38924453 0.5843671 0.08231359
-0.14117338 0.079642154 -0.048115354 0.10908346 0.3340004 -0.028875995 0.08135884 -0.0693185
-0.14226913 0.13122578 0.12855706 -0.24751467 0.21681064 -0.17798808 0.158215 0.24314956
0.1294144 0.04849978 -0.055262566 -0.028372617 0.4164797 -0.0058595347 -0.08589419 -0.04915549
0.20496055 -0.022560386 0.07909654 0.2137487 -0.31638527 0.084604 0.49452588 0.013238803
-0.123464644 -0.18387356 0.34616643 -0.0002870484 -0.12751101 -0.18781029 -0.3553578 0.18229155
-0.04728466 -0.13927758 -0.005682184 -0.28960955 0.16130477 0.06996224 -0.0688812 -0.2510909
-0.30594164 0.034271184 0.007840398 0.08894088 -0.060244363 0.1721259 0.16145171 -0.17297974
-0.17533168 -0.07912067 0.002137675 0.048239652 0.071641505 -0.09140146 0.23080662 -0.051906973
0.07261024 -0.025682267 -0.09446051 0.06795281 0.03219021 0.35561448 0.046653517 -0.015264441
0.20492296 -0.17822275 -0.1972091 -0.07516711 0.1772157 -0.13521059 -0.32292184 -0.19914415
0.13154894 0.28848398 -0.015667021 0.2960219 0.18240373 0.062651835 0.58981365 -0.38232163
-0.008755843 -0.52947485 -0.17373371 -0.43084538 0.07731536 -0.13519584 -0.28726166 0.054286037
0.12613383 0.1337764 -0.5131083 -0.018421127 -0.06496058 0.39595658 0.3797562 -0.30908844
0.057091 -0.12259026 -0.28645816 0.04157374 -0.07951295 -0.4114044 0.13942178 0.14229853
0.25254995 0.032068413 -0.035081983 -0.0113244755 0.18799284 -0.048871394 0.34484935 -0.2780167
-0.04812778 -0.11695673 -0.10301785 -0.25166237 -0.04651704 0.1116593 -0.22407353 0.026864883
0.05173665 0.014921814 -0.063649125 -0.38956413 -0.19926086 -0.009753454 0.0939476 0.108384624
00000000: a926 333d 890f 693e 8866 0bbd bea0 5e3e
00000010: fc0e b8be 51cc e2bd 326e 9abe 2bff c83e
00000020: d7c1 9a3e b52b c93d eef0 a3be c111 32be
00000030: b8d9 eebd 2ab4 85bd 70a2 073e 1d0d 4a3e
00000040: 1c1a 60be 5f96 c9bc 1b17 aebc f9d0 cfbd
00000050: 04f9 15bd dff6 42be fbe9 8fbe 772c 0fbe
00000060: f179 0e3d dfcd 683d 1a85 bf3d 5641 7a3e
00000070: 8a06 b8be 8a98 16be b33e c6bd 3607 d73e
00000080: dc08 0a3e 57a2 16bd 5bf2 02be 442e 533e
00000090: 730f 8bbd 9315 56be b0c8 9e3e 8b96 53bc
000000a0: 734e 043e 6e54 6abc acb1 e23c 7764 ce3d
000000b0: 8dab c03d 4011 6dbe 45e9 7a3e b9b6 57be
000000c0: c00d 173e 010f dabd f853 9a3d 120b 58bd
000000d0: da11 afbd 5c6c 473c 9274 a5be 9aff 0d3e
000000e0: 0aa6 50be 8f45 343e bc0f 76be 42eb 753c
000000f0: 7d14 b0bd 890d 4abe b6e6 7b3e 32c3 f6bd
00000100: bfd8 313e 7b29 60be 8806 2b3e 9580 9abe
00000110: c109 1f3d 4e98 b1bd 2624 4f3e fa83 e63c
00000120: cf70 22be 8471 88bd 5f86 1f3e 65eb 913c
00000130: 156d 353c 93cc 703d 307f 313e e4a8 993d
00000140: 4b89 403d 5857 26be 5f09 45bc 1e77 05be
00000150: 3fa8 99bd b975 03be bde3 a53e 9410 583d
00000160: c327 023e 52c7 c23d 730c a2bc aaed fa3d
00000170: 4811 273e 1752 c3bd 61dc 93be 9862 fdbe
00000180: 598d 64be 1df2 913e 8cb8 493e f018 f8bd
00000190: 7204 013f 856e 853e 70e8 05be 89a9 983e
000001a0: fb6c bb3e 42ab a13b 5a11 32be 64f5 94be
000001b0: 0688 bfbe 218a 993d e8e9 71bd b248 ef3d
000001c0: e3fe a5be d797 f3bc 1abf 9abe ea9f 583e
000001d0: 5df7 acbe 0f4b c73e 1599 153f 0794 a83d
000001e0: c18f 10be 6d1b a33d 9b14 45bd 2667 df3d
000001f0: 1a02 ab3e 5a8d ecbc 779f a63d dcf6 8dbd
00000200: 00af 11be 0d60 063e 76a4 033e 7c74 7dbe
00000210: 9c03 5e3e 8242 36be 1d03 223e 33fc 783e
00000220: 3585 043e b5a7 463d 005b 62bd b16d e8bc
00000230: d43c d53e 5701 c0bb 4be9 afbd 4457 49bd
00000240: 2ee1 513e 8fd0 b8bc 5efd a13d f0e0 5a3e
00000250: 40fd a1be dd44 ad3d 7f32 fd3e 90e7 583c
00000260: 08db fcbd 5a49 3cbe ba3c b13e fc7e 96b9
00000270: 3f92 02be 5751 40be 75f1 b5be a3aa 3a3e
00000280: 8fad 41bd c89e 0ebe 9d31 babb b447 94be
00000290: 142d 253e 5d48 8f3d 9611 8dbd fd8e 80be
000002a0: 62a4 9cbe f15f 0c3d 0375 003c a326 b63d
000002b0: cbc2 76bd c641 303e 9953 253e 9a21 31be
000002c0: 268a 33be 050a a2bd 3c18 0c3b f196 453d
000002d0: c8b8 923d b030 bbbd 9258 6c3e 689c 54bd
000002e0: adb4 943d 9e63 d2bc 8374 c1bd d82a 8b3d
000002f0: e2d9 033d 1a13 b63e c217 3f3d b517 7abc
00000300: 53d7 513e 0680 36be 2ff1 49be 37f1 99bd
00000310: 0878 353e a574 0abe 0356 a5be 72ec 4bbe
00000320: c4b4 063e 2cb4 933e 2058 80bc 2f90 973e
00000330: 0bc8 3a3e 9b4f 803d 07fe 163f a9bf c3be
00000340: ab74 0fbc aa8b 07bf 40e7 31be c497 dcbe
00000350: 8457 9e3d c770 0abe f613 93be 095b 5e3d
00000360: 3a29 013e aefc 083e 115b 03bf e7e7 96bc
00000370: 0d0a 85bd d2ba ca3e 686f c23e d740 9ebe
00000380: 41d8 693d 9a10 fbbd a5aa 92be 3a49 2a3d
00000390: afd7 a2bd 99a3 d2be 95c4 0e3e b5b6 113e
000003a0: 3a4e 813e 2b5a 033d 20b2 0fbd 4b8a 39bc
000003b0: 3281 403e 5f2d 48bd 1890 b03e 3458 8ebe
000003c0: a321 45bd 0387 efbd 06fb d2bd e4d9 80be
000003d0: a788 3ebd a2ad e43d 8873 65be be13 dc3c
000003e0: cfe9 533d a07a 743c 795a 82bd f374 c7be
000003f0: 0a0b 4cbe f3cc 1fbc 9967 c03d c2f8 dd3d

context_transformer_0/attention/value/einsum/Einsum;StatefulPartitionedCall/context_transformer_0/attention/value/einsum/Einsum3 f4 [32, 32]
-0.012538678 0.2355648 -0.19184586 0.23968562 0.05800956 -0.35139784 0.23621365 0.042914875
-0.37663627 -0.08262177 0.13612056 0.1016743 -0.316406 0.021668179 0.39184383 -0.24516109
-0.3651358 -0.043580916 -0.086968586 0.33535826 0.14537407 -0.20868206 0.54936916 0.41680354
-0.12367309 -0.2171703 0.22345617 -0.2063025 0.22951211 -0.29021087 -0.23052283 0.009699315
-0.043188144 0.013293354 0.22272791 0.47264528 -0.026151078 0.11547523 -0.31760204 -0.029761499
0.68591875 0.097636655 0.06735267 0.039438356 0.14433114 0.10452002 -0.8546605 -0.12100831
0.105421305 -0.08078548 0.16383652 0.04325831 -0.32691404 -0.15912122 0.3771694 -0.0041474397
-0.2509603 -0.010961208 -0.08628939 0.5004323 0.10301763 0.22960454 0.72026455 -0.06432728
-0.3106166 -0.39559892 0.22773062 -0.14046353 -0.054086477 0.23425865 -0.37258795 -0.30733782
-0.23181465 -0.039771453 -0.07025702 -0.31617126 -0.16542622 -0.017949672 -0.06005802 -0.46489304
0.37944627 -0.041646928 -0.116579376 -0.1599629 -0.09532853 0.47870857 0.6428003 0.4143477
0.11998167 0.36818856 -0.24437487 -0.061364353 -0.515775 -0.3610801 0.1035262 0.09079537
0.64734364 0.38764212 0.1937974 0.44171908 0.2598365 -0.36199722 -0.012866244 0.06035841
-0.3297611 0.19592726 0.11047779 -0.008223557 0.13490558 0.31776917 0.6109533 0.09987239
0.12112047 0.07047517 -0.023769224 -0.26664576 -0.054356858 0.27466133 0.32579407 0.3241971
0.25630835 0.037975512 0.12892787 0.01734895 -0.2626167 -0.10981954 0.057219405 0.17801833
0.020290747 -0.33287844 0.21043 -0.2763703 -0.45097566 -0.043642282 0.35541195 0.08651726
-0.08696604 0.2531349 -0.04271194 0.02582299 -0.09080375 -0.12864022 -0.43131983 0.14123861
-0.32114628 -0.42853814 -0.408417 -0.12895489 -0.005969064 0.09450705 -0.0031032176 -0.010347803
0.37859756 0.113017425 0.10650022 0.31267738 -0.35219485 -0.13332811 -0.52572787 -0.19131802
-0.11349923 0.5723254 -0.22161357 0.41794872 0.2804153 0.0529103 0.232516 0.14679354
-0.16925335 0.2884471 0.20991899 0.06758736 -0.27689603 -0.120498575 0.01679302 -0.10191992
-0.29095396 0.13461706 0.29506406 0.7695171 0.08859285 0.16953745 0.5682381 0.3244729
0.1386137 -0.27619722 -0.057824355 -0.31757388 0.012134215 -0.26466236 -0.2625311 -0.293241
-0.9296684 0.61905766 -0.14341325 -0.057571232 -0.10267232 0.16020165 0.09066432 -0.16605304
-0.10194095 0.057956662 -0.033391673 -0.0027610748 -0.17240849 -0.3373651 0.36046875 -0.18633132
-0.20485759 -0.21341631 -0.25742486 -0.104261845 -0.20334505 0.44743022 0.13593516 -0.16913748
0.09232993 0.013413924 0.00037279504 -0.13664895 0.29200163 0.4609305 0.11831211 -0.1698346
0.48450068 0.2703157 -0.017457312 0.16748855 0.14263462 -0.27763784 -0.43668112 -0.013921101
0.024759622 -0.062958464 -0.12277537 -0.061610416 -0.11644168 -0.13043912 -0.5588839 0.16966626
0.17923354 0.1831878 0.3678318 0.01742006 0.04486697 0.08930091 -0.068792604 -0.15488346
0.08505795 -0.08713841 0.09090727 0.3534941 0.21956728 0.4459687 -0.11336612 -0.32940826
00000000: 076f 4dbc e637 713e 3e73 44be 2670 753e
00000010: 6f9b 6d3d 6bea b3be fee1 713e 82c7 2f3d
00000020: 78d6 c0be 9a35 a9bd 3063 0b3e 9e3a d03d
00000030: f8ff a1be 7781 b13c c19f c83e 820b 7bbe
00000040: 14f3 babe e781 32bd 961c b2bd 14b4 ab3e
00000050: f1dc 143e c0b0 55be 75a3 0c3f 4667 d53e
00000060: 5148 fdbd e461 5ebe b2d1 643e f640 53be
00000070: 3905 6b3e 8596 94be 2d0e 6cbe e0e9 1e3c
00000080: 0de6 30bd 5ecc 593c c912 643e 90fe f13e
00000090: c93a d6bc 477e ec3d bc9c a2be 63ce f3bc
000000a0: 5f98 2f3f baf5 c73d 32f0 893d 1d8a 213d
000000b0: 8bcb 133e 980e d63d 08cb 5abf 34d3 f7bd
000000c0: 20e7 d73d dc72 a5bd c3c4 273e a02f 313d
000000d0: 4761 a7be acf0 22be 591c c13e 3fe7 87bb
000000e0: de7d 80be a396 33bc 7eb8 b0bd 551c 003f
000000f0: e8fa d23d 741d 6b3e 4263 383f 05be 83bd
00000100: 2409 9fbe f18b cabe 3732 693e acd5 0fbe
00000110: c889 5dbd 80e1 6f3e d9c3 bebe 625b 9dbe
00000120: d260 6dbe 64e7 22bd eae2 8fbd 33e1 a1be
00000130: 7e65 29be 310b 93bc 66ff 75bd 7606 eebe
00000140: c846 c23e f895 2abd 2bc1 eebd 51cd 23be
00000150: 9b3b c3bd 4a19 f53e 8f8e 243f 6225 d43e
00000160: f3b8 f53d 3683 bc3e 683d 7abe 3059 7bbd
00000170: d509 04bf 7edf b8be 8b05 d43d ecf2 b93d
00000180: 50b8 253f 0779 c63e d372 463e 0129 e23e
00000190: 4a09 853e b357 b9be f0cc 52bc 613a 773d
000001a0: 72d6 a8be 28a1 483e 2e42 e23d 19bc 06bc
000001b0: b024 0a3e a4b2 a23e 6f67 1c3f e589 cc3d
000001c0: 020e f83d 4955 903d adb7 c2bc cb85 88be
000001d0: 4ca5 5ebd 69a0 8c3e 7bce a63e 2afd a53e
000001e0: d93a 833e 368c 1b3d ab05 043e 631f 8e3c
000001f0: b275 86be 11e9 e0bd e55e 6a3d 704a 363e
00000200: c838 a63c 0b6f aabe f67a 573e 6880 8dbe
00000210: 48e6 e6be 40c2 32bd 8ef8 b53e f62f b13d
00000220: 401b b2bd e69a 813e b7f2 2ebd bc8a d33c
00000230: 51f7 b9bd 43ba 03be f4d5 dcbe dba0 103e
00000240: 496d a4be 5a69 dbbe 081c d1be c00c 04be
00000250: 2398 c3bb ea8c c13d 5a5f 4bbb d589 29bc
00000260: 8ad7 c13e ae75 e73d ca1c da3d 4017 a03e
00000270: e252 b4be 2a87 08be 1a96 06bf dfe8 43be
00000280: 4972 e8bd eb83 123f abee 62be 60fd d53e
00000290: 9892 8f3e 79b8 583d ad18 6e3e 0c51 163e
000002a0: c050 2dbe 57af 933e 01f5 563e 3e6b 8a3d
000002b0: 51c5 8dbe f5c7 f6bd 8491 893c 64bb d0bd
000002c0: ebf7 94be 0ed9 093e a312 973e 13ff 443f
000002d0: 2b70 b53d 3a9b 2d3e 0d78 113f 5021 a63e
000002e0: c0f0 0d3e b969 8dbe 3bd9 6cbd 0b99 a2be
000002f0: 96ce 463c d381 87be 7a6a 86be af23 96be
00000300: c0fe 6dbf 907a 1e3f ecda 12be d0cf 6bbd
00000310: de45 d2bd e70b 243e 37ae b93d cf09 2abe
00000320: 6bc6 d0bd f763 6d3d b5c5 08bd 26f3 34bb
00000330: da8b 30be 1ebb acbe 5c8f b83e a3cd 3ebe
00000340: 30c6 51be ce89 5abe 31cd 83be 3c87 d5bd
00000350: af39 50be 9315 e53e 9632 0b3e 6032 2dbe
00000360: 7917 bd3d 13c6 5b3c b473 c339 b4ed 0bbe
00000370: 3d81 953e 15ff eb3e 9f4d f23d 1fe9 2dbe
00000380: 7910 f83e d266 8a3e a302 8fbc 1e82 2b3e
00000390: cf0e 123e 8c26 8ebe ab94 dfbe 5415 64bc
000003a0: b1d4 ca3c 5ef0 80bd a771 fbbd 345b 7cbd
000003b0: fa78 eebd d591 05be 0413 0fbf febc 2d3e
000003c0: ff88 373e 9595 3b3e 7354 bc3e 83b4 8e3c
000003d0: 6ec6 373d 65e3 b63d 23e3 8cbd c599 1ebe
000003e0: dd32 ae3d 9f75 b2bd 972d ba3d 2efd b43e
000003f0: 3fd6 603e 0256 e43e 7f2c e8bd 33a8 a8be

context_transformer_0/kq_shared_bottleneck/dense/einsum/Einsum;StatefulPartitionedCall/context_transformer_0/kq_shared_bottleneck/dense/einsum/Einsum f4 [32, 32]
0.010791548 0.32759085 0.0014236855 0.14104645 -0.13725428 -0.23018308 -0.05968223 -0.36870247
0.0030631737 -0.14365071 -0.086772546 -0.065981336 0.06832283 0.081097886 0.1981763 0.038988575
-0.39999846 -0.18908283 0.03551268 -0.038994506 -0.055025533 -0.36202958 -0.07783526 -0.16043445
-0.032021664 0.14863466 -0.07756084 0.06019425 -0.0013356527 0.023205852 -0.046440784 0.19643135
-0.022502836 -0.38069248 0.036394488 -0.11509205 0.03306146 0.23352359 0.08034086 0.35528895
-0.02891814 0.032609656 0.025899021 -0.08883813 -0.11151518 -0.13287306 -0.19279438 0.054645404
0.37619704 0.025987228 -0.017345067 -0.0070863073 0.04219797 0.28363845 -0.053070474 0.07310114
0.13708387 -0.14276226 0.053060234 -0.119169034 0.0998582 0.08416007 -0.0722995 -0.21418492
-0.049261943 -0.3801928 -0.09253972 -0.070796266 0.0658871 0.1738694 0.027684296 0.37491316
-0.0029293424 0.18921438 0.025717618 -0.010091148 -0.1250593 -0.12211125 -0.17873165 -0.019507436
0.31163028 0.19372135 0.07431018 0.044180647 -0.024812825 0.3546668 -0.023511983 0.08896218
0.120202415 -0.15114258 0.02515251 -0.0631692 0.003837272 0.034840796 -0.022783749 -0.22171389
-0.2951061 0.17253286 0.33311343 -0.23858479 0.35644755 0.022199266 0.05478236 0.1843155
0.21585093 -0.12379182 -0.041264735 0.19070053 0.33459824 -0.064193256 0.105879255 -0.17097594
-0.16799113 0.29396582 -0.30126554 -0.18450266 -0.36225194 -0.29364246 -0.485236 -0.20914194
0.40669808 0.20318128 -0.11701321 0.036372636 -0.2671853 -0.32092816 -0.2868312 0.007311963
-0.0022894787 -0.1008634 0.1393059 0.09414005 -0.07892729 -0.024951288 -0.1795832 0.43548402
0.0011035168 -0.09411631 -0.021582516 0.28287223 0.05795057 0.046400014 -0.039247878 0.042034827
0.3187204 -0.16788481 -0.20650402 0.05686644 -0.08143522 0.13576661 0.18998277 -0.13061509
0.16067198 -0.2567716 -0.11417862 0.024713175 -0.093901366 0.25106895 -0.084926106 -0.26380828
-0.30927455 0.17340975 0.11783624 -0.33477235 0.01272413 0.17240395 0.11715127 0.48369268
0.15823798 -0.09583769 0.17954172 0.24931037 0.25066724 -0.053680364 -0.002653649 -0.05064508
0.2648722 -0.24072248 -0.15831709 -0.17166185 0.0075000217 -0.017972821 -0.023013957 -0.038435735
0.2526731 -0.05147496 0.10329498 0.010813694 0.19171004 0.05591625 0.02781458 0.040303595
-0.10050571 0.35637653 0.042063296 0.027586823 0.11577936 -0.13500068 0.05816749 -0.283998
0.081659205 -0.060972974 -0.04852436 0.19022171 0.16245686 0.13829537 0.12195937 -0.09487177
-0.33392686 -0.1014892 -0.1533939 -0.04937629 0.087493256 -0.40108937 -0.01990401 -0.090086885
0.030124081 0.15977982 0.14141242 0.16240492 0.003048485 -0.15666327 -0.0056556645 0.21359265
0.07799315 -0.2037668 -0.00048839534 -0.23788728 -0.116717085 0.28504127 -0.031394098 0.2944852
0.01235995 -0.02151734 0.043623306 -0.3278754 -0.05379953 -0.19437759 -0.21652141 0.05098367
0.38946587 -0.017814312 -0.009952003 -0.033500534 0.036054097 0.33776107 0.036783855 0.10571857
0.0027331898 -0.06201842 -0.041866057 -0.04027904 0.015446154 0.13865839 0.078644276 -0.13248935
00000000: 08cf 303c fdb9 a73e f59a ba3a 7b6e 103e
00000010: 638c 0cbe 1db5 6bbe 5b75 74bd 92c6 bcbe
00000020: 87bf 483b 2c19 13be ceb5 b1bd 3921 87bd
00000030: d7ec 8b3d a616 a63d baee 4a3e 7cb2 1f3d
00000040: 99cc ccbe ee9e 41be be75 113d b4b8 1fbd
00000050: 7462 61bd f15b b9be 1868 9fbd ee48 24be
00000060: 2629 03bd af33 183e 38d8 9ebd 3f8e 763d
00000070: 1111 afba 331a be3c b138 3ebd 4d25 493e
00000080: de57 b8bc 20ea c2be 6312 153d 61b5 ebbd
00000090: 746b 073d cf20 6f3e c089 a43d 6fe8 b53e
000000a0: bce5 ecbc b491 053d 2f2a d43c c4f0 b5bd
000000b0: 1262 e4bd e00f 08be e46b 45be dcd3 5f3d
000000c0: e69c c03e 2be3 d43c 3e17 8ebc 4134 e8bb
000000d0: c7d7 2c3d 0f39 913e 6d60 59bd 0db6 953d
000000e0: b75f 0c3e 4530 12be b055 593d e50e f4bd
000000f0: 7582 cc3d 1d5c ac3d c311 94bd 4b53 5bbe
00000100: e4c6 49bd a1a8 c2be 7785 bdbd a2fd 90bd
00000110: d1ef 863d d20a 323e 2dca e23c 9ef4 bf3e
00000120: 36fa 3fbb 6ac1 413e c1ad d23c 5855 25bc
00000130: 8c0f 00be 7715 fabd 6e05 37be 0fce 9fbc
00000140: 018e 9f3e e45e 463e f02f 983d c4f6 343d
00000150: 4444 cbbc e396 b53e 349c c0bc ce31 b63d
00000160: af2c f63d 1fc5 1abe a30c ce3c db5e 81bd
00000170: be7a 7b3b 39b5 0e3d fca4 babc f708 63be
00000180: 2618 97be 74ac 303e d88d aa3e 924f 74be
00000190: 4b80 b63e 3cdb b53c 7863 603d 34bd 3c3e
000001a0: 0708 5d3e 9186 fdbd 3605 29bd 0047 433e
000001b0: 7650 ab3e c177 83bd 39d7 d83d 5114 2fbe
000001c0: de05 2cbe b082 963e 7a3f 9abe 44ee 3cbe
000001d0: 1679 b9be 4e58 96be da70 f8be 4e29 56be
000001e0: bb3a d03e c10e 503e 9fa4 efbd 79fb 143d
000001f0: 83cc 88be b250 a4be 8adb 92be 3199 ef3b
00000200: 140b 16bb 7891 cebd 35a6 0e3e 80cc c03d
00000210: a2a4 a1bd a566 ccbc a9e4 37be c3f7 de3e
00000220: e1a3 903a 0dc0 c0bd d1cd b0bc a1d4 903e
00000230: 945d 6d3d f10d 3e3d 62c2 20bd b62c 2c3d
00000240: 522f a33e ffe9 2bbe ca75 53be c9ec 683d
00000250: 82c7 a6bd 6706 0b3e d88a 423e f6bf 05be
00000260: 3287 243e 9177 83be 7bd6 e9bd 4973 ca3c
00000270: 5c4f c0bd 1c8c 803e bded adbd e111 87be
00000280: 3c59 9ebe 5392 313e 2054 f13d 4867 abbe
00000290: df78 503c a98a 303e 01ed ef3d 91a6 f73e
000002a0: 2309 223e 8d46 c4bd c9d9 373e 384b 7f3e
000002b0: 7557 803e f1df 5bbd d8e8 2dbb 3771 4fbd
000002c0: 549d 873e f47f 76be e01d 22be 20c8 2fbe
000002d0: bec2 f53b bd3b 93bc c487 bcbc ca6e 1dbd
000002e0: 5e5e 813e 68d7 52bd 528c d33d ec2b 313c
000002f0: a34f 443e 7008 653d 67db e33c 6215 253d
00000300: f0d5 cdbd fc76 b63e 904a 2c3d c3fd e13c
00000310: bb1d ed3d 9e3d 0abe 0941 6e3d 3068 91be
00000320: f13c a73d ccbe 79bd 7bc1 46bd 7bc9 423e
00000330: 175b 263e 4d9d 0d3e d6c5 f93d 214c c2bd
00000340: 76f8 aabe 92d9 cfbd 4a13 1dbe cb3e 4abd
00000350: aa2f b33d 965b cdbe bc0d a3bc 797f b8bd
00000360: c7c6 f63c 529d 233e 6bce 103e 7a4d 263e
00000370: 17c9 473b 566c 20be 2753 b9bb 08b8 5a3e
00000380: dfba 9f3d 3ea8 50be a807 00ba b998 73be
00000390: 5e09 efbd eef0 913e 1997 00bd c4c6 963e
000003a0: 6381 4a3c 2245 b0bc 5aae 323d 49df a7be
000003b0: e55c 5cbd eb0a 47be cab7 5dbe 41d4 503d
000003c0: 1268 c73e 52ef 91bc ba0d 23bc db37 09bd
000003d0: 76ad 133d 05ef ac3e abaa 163d fa82 d83d
000003e0: 511f 333b 0707 7ebd be7b 2bbd a2fb 24bd
000003f0: de11 7d3c 77fc 0d3e 4010 a13d 4aab 07be

context_transformer_0/attention/attention_output/einsum/Einsum;StatefulPartitionedCall/context_transformer_0/attention/attention_output/einsum/Einsum f4 [32, 32]
0.06910464 -0.2049275 -0.36631492 0.2835379 0.12983707 -0.38446793 0.16839053 -0.20913218
0.35816726 0.18037355 0.30830652 -0.12293927 0.023060745 -0.24028754 0.070971586 -0.32207683
-0.023528315 0.115705736 0.22840817 0.05295109 0.15786076 0.08434517 -0.11160216 -0.32085043
0.6823581 0.13472989 0.56351316 -0.41297287 -0.14993234 0.39038482 0.30778864 -0.5232412
0.010415162 -0.38379672 -0.38797727 -0.3992837 0.32111382 0.054228608 -0.03873303 -0.40840766
-0.39303768 0.09426822 -0.50227207 -0.07523485 -0.47855222 0.05675022 -0.042800374 0.012811782
0.13843298 -0.28444156 0.11981887 0.16893372 -0.17771235 0.6217432 -0.12668923 -0.21910544
0.24750195 -0.24136572 0.3107191 -0.14593129 0.1487009 0.021342589 0.32142514 -0.19209118
-0.15802345 0.13904119 -0.059273995 -0.16108724 -0.124455065 -0.15513584 0.054729015 0.04086078
0.19043204 0.306552 0.16176458 -0.18072341 -0.112038314 -0.049515873 0.23583831 -0.23775999
0.13286287 -0.21935634 0.17128743 -0.12974502 0.031616572 -0.20866564 -0.021067427 -0.07002004
-0.19490303 -0.3432439 -0.3470732 0.14815749 -0.29439542 0.21752448 -0.14329249 -0.0703903
0.3768097 -0.08972585 -0.30510804 0.22520798 0.20411158 0.11651792 0.2914223 -0.09568505
0.015017167 -0.34543514 -0.0949235 -0.084835686 -0.032028884 0.055077374 0.05526761 0.19349612
-0.18229161 -0.10954334 -0.30711648 -0.1251497 0.22614339 -0.36703268 0.15587668 -0.2612669
-0.21600515 -0.52636695 -0.09416319 -0.05281948 -0.20600766 -0.21798107 0.1416052 0.6482296
0.27888328 0.23022 0.073865496 -0.4197654 -0.13606161 0.27139825 0.7434442 0.31352708
0.40883243 -0.12995827 -0.13587013 -0.0056889043 -0.26141232 -0.023592543 -0.081760556 -0.10077549
-0.22646874 -0.3285977 -0.027126944 -0.8187399 0.2059264 -0.18182011 -0.14582533 -0.042349845
-0.07054848 0.28500867 -0.16065085 0.25779685 -0.31232226 -0.54266244 0.06735341 -0.10910562
0.13361849 -0.10223911 -0.22121708 -0.38894653 -0.21506885 0.104531266 0.062204033 0.18087937
-0.0847963 -0.01663138 -0.047250085 0.05293424 -0.296479 0.036657672 -0.0964258 0.20907268
0.27424034 -0.09595547 0.15879932 -0.21434744 0.1126042 0.03516896 -0.29708207 0.17458567
-0.1216519 -0.017695636 0.052213248 0.2017115 0.43187279 -0.21832512 0.41031164 -0.18535222
-0.21253099 0.7465215 0.34845984 0.058756262 0.0851056 -0.25743425 -0.3115232 0.019845515
-0.092245325 -0.10506561 -0.14580964 -0.008112347 -0.089275256 0.3838639 0.094319835 -0.01174123
-0.17790258 -0.2813538 -0.20906745 0.2752453 -0.07586181 -0.04707453 -0.016948402 -0.10395858
0.2036001 -0.13069838 -0.28389198 0.044669915 -0.016664436 0.6646811 -0.4046382 0.11675158
0.15470931 -0.4320939 -0.005119307 0.09279142 0.30958718 0.122976914 0.057433948 0.05967189
-0.33359146 0.12971164 -0.36078754 0.053481948 0.13164344 -0.43154433 -0.2952342 -0.09088635
0.005275841 0.39382598 -0.4054727 0.09998048 -0.010175961 -0.16641794 0.12765054 0.0463393
-0.084673874 -0.1109837 -0.03861672 0.014277447 -0.23149635 -0.46627146 -0.15035452 0.35508564
00000000: bc86 8d3d 84d8 51be a18d bbbe e12b 913e
00000010: 02f4 043e fbd8 c4be 916e 2c3e bf26 56be
00000020: b361 b73e d8b3 383e 5ada 9d3e 96c7 fbbd
00000030: e3e9 bc3c f00d 76be 8d59 913d 41e7 a4be
00000040: 74be c0bc 21f7 ec3d d5e3 693e 3ee3 583d
00000050: 40a6 213e 29bd ac3d ac8f e4bd 8246 a4be
00000060: 05af 2e3f a2f6 093e 6642 103f 2e71 d3be
00000070: dd87 19be 85e0 c73e 7996 9d3e 23f3 05bf
00000080: 5ba4 2a3c 0181 c4be f5a4 c6be ea6e ccbe
00000090: 0869 a43e d11e 5e3d 87a6 1ebd cf1a d1be
000000a0: 3c3c c9be b20f c13d e794 00bf bb14 9abd
000000b0: cc04 f5be eb72 683d 724f 2fbd 82e8 513c
000000c0: 60c1 0d3e 53a2 91be 9963 f53d f6fc 2c3e
000000d0: 3afa 35be 902a 1f3f d2ba 01be 2d5d 60be
000000e0: 2771 7d3e 9328 77be 9316 9f3e 036f 15be
000000f0: 0c45 183e a7d6 ae3c d691 a43e 8db3 44be
00000100: e6d0 21be d060 0e3e 4ac9 72bd 0ef4 24be
00000110: 4ce2 febd eedb 1ebe 882b 603d a25d 273d
00000120: 9e00 433e 62f4 9c3e 9da5 253e 8f0f 39be
00000130: 5874 e5bd 28d1 4abd 997f 713e 5b77 73be
00000140: 340d 083e f39e 60be f965 2f3e e1db 04be
00000150: 6180 013d 72ac 55be 9995 acbc ab66 8fbd
00000160: a994 47be aabd afbe 94b3 b1be 99b6 173e
00000170: ffba 96be bdbe 5e3e 44bb 12be ca28 90bd
00000180: 33ed c03e 30c2 b7bd 1f37 9cbe ec9c 663e
00000190: a002 513e f2a0 ee3d 4e35 953e 86f6 c3bd
000001a0: 900a 763c e0dc b0be 4167 c2bd 55be adbd
000001b0: b830 03bd d098 613d 4a60 623d d923 463e
000001c0: a7aa 3abe 4258 e0bd 5f3e 9dbe 3e27 00be
000001d0: 2292 673e b5eb bbbe 239e 1f3e c6c4 85be
000001e0: 7430 5dbe fcbf 06bf a1d8 c0bd 3d59 58bd
000001f0: acf3 52be 6e36 5fbe f400 113e 60f2 253f
00000200: cac9 8e3e cbbe 6b3e cb46 973d 7eeb d6be
00000210: bc53 0bbe b6f4 8a3e 5c52 3e3f 9f86 a03e
00000220: 7c52 d13e c813 05be 8a21 0bbe fd69 babb
00000230: d6d7 85be 2645 c1bc 1472 a7bd 6163 cebd
00000240: 6ce7 67be f53d a8be 5339 debc f098 51bf
00000250: 5fde 523e 0d2f 3abe 3c53 15be 0877 2dbd
00000260: b97b 90bd a8ec 913e a881 24be f3fd 833e
00000270: b4e8 9fbe edeb 0abf 96f0 893d c472 dfbd
00000280: 49d3 083e bd62 d1bd bb86 62be 0024 c7be
00000290: 023b 5cbe 7d14 d63d a8c9 7e3d 7138 393e
000002a0: afa9 adbd 883e 88bc 4e89 41bd 93d1 583d
000002b0: 18cc 97be 5b26 163d e47a c5bd 2617 563e
000002c0: 3b69 8c3e 4d84 c4bd 4a9c 223e e57d 5bbe
000002d0: 089d e63d 540d 103d 241b 98be 96c6 323e
000002e0: a224 f9bd 70f6 90bc 8fdd 553d 768d 4e3e
000002f0: 6e1e dd3e 9f90 5fbe 5e14 d23e f9cc 3dbe
00000300: b9a1 59be 081c 3f3f 5469 b23e 68aa 703d
00000310: d84b ae3d 6cce 83be f87f 9fbe 1093 a23c
00000320: 1eeb bcbd a32c d7bd 1f4f 15be a6e9 04bc
00000330: f2d5 b6bd cf89 c43e c22a c13d 4a5e 40bc
00000340: 182c 36be 9b0d 90be c715 56be f4ec 8c3e
00000350: 705d 9bbd 39d1 40bd 60d7 8abc 3ce8 d4bd
00000360: 8b7c 503e ccd5 05be 4a5a 91be cdf7 363d
00000370: db83 88bc 8a28 2a3f bd2c cfbe 741b ef3d
00000380: 1e6c 1e3e 693b ddbe dcbf a7bb 6e09 be3d
00000390: 3682 9e3e 52db fb3d dc3f 6b3d 836a 743d
000003a0: 80cc aabe 21d3 043e 25b9 b8be e30f 5b3d
000003b0: 8acd 063e 61f3 dcbe f028 97be 9f22 babd
000003c0: f6e0 ac3b 8fa3 c93e 1e9a cfbe 91c2 cc3d
000003d0: 13b9 26bc 7769 2abe d3b6 023e 47ce 3d3d
000003e0: 7f69 adbd 6c4b e3bd 912c 1ebd f4eb 693c
000003f0: 610d 6dbe 22bb eebe 89f6 19be c9cd b53e
